model.ckpt (torch, 914311 bytes, 10 tensors)

conv1.0.weight f4 [20, 1, 5, 5]
000000 8c 45 43 be 78 d9 ed bd 45 ba 06 be 7d e9 67 be
       -0.19069499 -0.116137445 -0.13156994 -0.22647662
000010 65 9a 43 3e 17 3e fa 3d e4 8d 4b 3e a2 0a a3 3b
       0.19101866 0.12218874 0.19878346 0.0049756328
000020 ad 30 93 be 25 79 64 be b1 80 22 be ab f0 e7 3d
       -0.28748074 -0.22311838 -0.15869404 0.11325201
000030 8f 7c 05 3e 05 46 21 be ab a3 85 bd e4 13 a4 3d
       0.13035797 -0.15749367 -0.06525358 0.08011606
000040 7e a2 a5 bd d8 f4 8a 3e 63 da 27 be 0f ff 94 be
       -0.080876336 0.27139926 -0.16391902 -0.29100844
000050 46 ae ba 3e 40 06 7a bd 3f 52 a0 3d 7d 91 4c 3e
       0.36461085 -0.061041117 0.07828187 0.19977374
000060 66 27 11 be e5 45 c6 be 6e 54 08 3f 4d d3 9e 3e
       -0.14175186 -0.387252 0.5325383 0.31020585
000070 36 d7 a3 be a9 cd 01 bf da 76 a0 3d f6 81 8d 3e
       -0.3200013 -0.5070444 0.07835169 0.27638215
000080 75 3f e6 be d3 85 8b be 40 bd b4 bd 6b c2 00 3d
       -0.4497029 -0.27250537 -0.08825159 0.03143541
000090 ab b9 97 be 7e a8 0d bf 80 6f 8b 3e 32 21 18 3f
       -0.2963384 -0.55335224 0.27233505 0.5942565
0000a0 02 d4 1c 3e 56 e0 71 3e b3 7c 73 3e a9 6e ac 3d
       0.1531525 0.23620734 0.23778038 0.08419544
0000b0 20 cd 2b 3e 2b 52 38 be 80 ec 2f bd 8d a3 49 be
       0.16777468 -0.18000095 -0.042950153 -0.19691296
0000c0 04 8e 02 3d 93 74 86 be d5 9f 05 be f5 75 45 be
       0.031873718 -0.26260814 -0.13049252 -0.19283278
0000d0 37 3e 4e 3e c9 5e 33 3d 17 09 07 be 36 40 88 bd
       0.2014092 0.043791566 -0.13187061 -0.06652872
0000e0 b1 9b d6 3b ef 6c 24 be 6c 96 d7 bd 5a ab 45 3c
       0.0065493216 -0.1605718 -0.105267376 0.012064779
0000f0 19 27 a1 bc 60 71 56 3d 90 bb b0 bb f0 e5 3f be
       -0.019671964 0.052354217 -0.005393453 -0.18740058
000100 97 a1 40 be 8e 83 6d 3e ad c7 39 be 05 d8 b0 bd
       -0.18811642 0.23194715 -0.18142577 -0.086349525
000110 74 55 3a 3d 27 85 e1 3d 32 97 0e be 24 41 51 3d
       0.04549165 0.11011725 -0.13924864 0.051087514
000120 2e 54 3e be 88 6b 15 3e 78 dd b7 bd dc 39 60 3e
       -0.185868 0.14591801 -0.08977789 0.21897072
000130 74 8b be 3e 25 59 45 be 8b c7 05 be 01 ae 8e 3d
       0.3721577 -0.19272287 -0.13064401 0.06966782
000140 bd 3d 9e 3e 83 37 1b 3e 9a cc 1e 3d 03 b2 09 be
       0.30906478 0.15157895 0.038769342 -0.13446812
000150 42 f9 a7 3b 98 10 0b 3f 9a 57 5a 3e bf b3 95 bd
       0.0051261494 0.54322195 0.2132248 -0.073096745
000160 ff 37 0b be 3f 09 a5 be e9 ac f7 3d 5b 46 48 bd
       -0.1359558 -0.32233617 0.12093527 -0.04889522
000170 f1 3b 08 be 2e eb 91 be d9 40 7f be 90 34 bd bb
       -0.13304116 -0.2849974 -0.24927081 -0.005774088
000180 54 f9 6a 3e 82 27 e3 bd be b2 2f be 01 8b 84 bd
       0.22946674 -0.1109152 -0.17158028 -0.064718254
000190 67 2b 25 be 2c 8f da bd 16 4b 07 3c 86 1c 1c be
       -0.16129838 -0.10671839 0.008257648 -0.15245256
0001a0 5b c8 85 3d fd 63 25 3e cc 0f 89 be 36 8c 88 be
       0.065323554 0.16151424 -0.26769865 -0.26669472
0001b0 95 cc 80 be 8a e3 8b 3e 4a 68 20 be 87 2e ea 3d
       -0.25156084 0.27322036 -0.15664783 0.11434656
0001c0 77 73 81 bc 72 cc 68 3e 5c 9d cc bd e7 93 3f bd
       -0.015802128 0.2273424 -0.099909514 -0.04677191
0001d0 09 9a 4b 3e 61 b0 55 3e ce d8 47 be 23 12 ae 3d
       0.19882978 0.20868064 -0.19516298 0.08499553
0001e0 85 22 59 3e 8a 4e df bd 02 2f 1a bd 26 fa 8a be
       0.21204574 -0.10903652 -0.037642486 -0.27143973
0001f0 48 9c d9 bd c5 32 00 be 89 f9 85 bd 52 5f e8 bd
       -0.106255114 -0.12519367 -0.06541736 -0.11346306
000200 bc d8 d9 3d d9 8d ae bd 0d e0 17 3e ec d1 eb bd
       0.10637042 -0.08523149 0.14831562 -0.11514649
000210 39 31 cc bd 37 ba be 3d 3e 1b 3a bc 07 19 9a bd
       -0.09970326 0.093128614 -0.011359034 -0.07524305
000220 5c ab 6d bc 0c 69 67 3d 64 14 30 be a7 07 c2 bc
       -0.014506187 0.056496665 -0.17195278 -0.02368529
000230 f4 2e 30 be 76 44 bd bd dd 3a 2a 3e 5d 0c 99 bd
       -0.17205411 -0.092415735 0.16624017 -0.07473061
000240 a3 e8 15 3d 79 c1 84 bd 9c 07 a8 bd 1d 92 1a be
       0.036598813 -0.064822145 -0.082045764 -0.150948
000250 22 eb ce bd c9 9c 2d be af 83 3f 3e ad eb 98 3d
       -0.10103442 -0.1695434 0.18702577 0.074668266
000260 b9 9c 84 be 4b 21 95 be 03 b0 22 3e 84 c8 03 3e
       -0.2590082 -0.29126963 0.15887456 0.1286946
000270 d5 2d 51 3e b5 64 10 bf d6 78 f2 be c4 51 75 3e
       0.2042764 -0.56403667 -0.47357816 0.23956972
000280 8c 05 9d 3e 07 cb 77 3d 78 35 1c bf e8 d9 b4 be
       0.30668294 0.060496356 -0.61019087 -0.353225
000290 e6 05 08 3f 46 db b6 3e 52 8f 0a be 39 a2 96 be
       0.53134 0.35714167 -0.13531235 -0.2942064
0002a0 fb 04 ba bd d5 44 f0 3e 5b 69 8f 3d 20 54 85 be
       -0.09082981 0.46927515 0.07002517 -0.26040745
0002b0 3c 18 a1 be 7e ed 1a be 40 6b 03 3e e5 42 01 3e
       -0.31463802 -0.15129659 0.12833881 0.12623174
0002c0 37 67 bb bd f6 53 38 be 0e e3 38 be 19 ea 20 3e
       -0.09150546 -0.18000779 -0.18055364 0.15714301
0002d0 d1 d6 20 be c0 31 d5 3d 12 88 2d bd 71 f8 0e 3e
       -0.15706946 0.1040988 -0.042366095 0.1396196
0002e0 71 37 18 be d1 da 01 3e 42 ce 42 3d 7a 1c 0c bd
       -0.14864899 0.12681128 0.047559984 -0.034206845
0002f0 cf 0e 89 bd b2 50 2b be 4c b4 ce bd 5e e8 4b 3c
       -0.06692278 -0.16730002 -0.10092983 0.012445537
000300 54 c7 30 3d c4 af e5 3d ec 68 4f bd 1c 81 07 bd
       0.043158844 0.11215165 -0.05063717 -0.033082113
000310 bc 70 86 bd 2b c6 d1 bd 19 1e fd bd 70 fa 54 3d
       -0.06564471 -0.10242876 -0.12359256 0.05199665
000320 9c 85 73 be c0 db a2 3c 3b ed 97 bd 95 75 c3 3e
       -0.23781437 0.019880176 -0.07418295 0.38175645
000330 ad da 94 3e 94 b8 c4 bd 7f 6c ef bc c2 44 5c be
       0.29073086 -0.09605518 -0.02922654 -0.21510604
000340 d1 83 d4 3e b9 cc 18 bc bb 1e c6 be 83 39 af bd
       0.41506818 -0.009326153 -0.3869532 -0.08555891
000350 01 8c b9 bd 43 f5 18 3f a5 81 c4 bd 21 c3 da be
       -0.09059907 0.5974924 -0.0959504 -0.42726997
000360 06 f5 b8 be 53 ca 29 3e 42 3f 83 3e 05 b3 b9 bc
       -0.36124438 0.16581087 0.256342 -0.022668371
000370 20 37 cd be f3 b1 d3 bd 72 01 1f 3e 23 2b e2 3c
       -0.4008112 -0.103366755 0.15527895 0.02760846
000380 3c 0c 5e 3e ec f7 33 3e 1c 37 4f be 6d a3 93 3c
       0.21684355 0.17575043 -0.20235866 0.018022263
000390 89 05 3e be 9d a1 1d bd f3 ae 03 3e 33 ba 34 3e
       -0.18556799 -0.038484205 0.12859707 0.17649154
0003a0 6a 91 48 3f 8b bd 02 3f ee 28 2d be 86 3a 13 3e
       0.78346884 0.5107047 -0.16910145 0.14377794
0003b0 8d 8c 22 be 6c 82 98 3d 7f fc 0d 3f 23 e2 86 3e
       -0.15873928 0.07446751 0.55463403 0.26344404
0003c0 d1 4f d2 bd 7b 86 15 bf 45 00 b1 be 23 fe b3 bd
       -0.1026913 -0.58408326 -0.34570518 -0.08788707
0003d0 ea 7b e1 3c 72 b7 9f be e5 e6 ac be 00 6e e6 be
       0.027524907 -0.31194645 -0.3376991 -0.45005798
0003e0 6b 2c fd be fa 53 91 3d a5 d5 c2 be b5 02 ad 3e
       -0.4944795 0.070960954 -0.38053623 0.33791128
0003f0 99 6e e0 3d c6 c8 b1 3e 8e 1e 79 bd 3a 72 a8 3c
       0.10958595 0.3472349 -0.060820155 0.02056228

conv1.0.bias f4 [20]
000000 d8 4d 70 3b 91 62 5f bd 38 3a 5c 3d a7 2b 9e be
       0.0036667492 -0.05453736 0.05376646 -0.3089268
000010 bd 46 cd bc 03 64 ce bd 07 a4 10 be f4 ca 4f be
       -0.025058145 -0.100776695 -0.14125071 -0.20292264
000020 81 2c 12 bf 2f 1b 4e be 8f a3 32 be f9 73 1b 3e
       -0.5709916 -0.20127557 -0.17445205 0.15180959
000030 74 d4 48 bd 7c 2c 7b be dd c0 5f be 6d 8c 4c bf
       -0.049030736 -0.24528688 -0.21850915 -0.7990177
000040 f1 23 a3 be cb 2f 9b 3d 53 14 64 be 5b 62 b5 be
       -0.3186336 0.07577475 -0.22273378 -0.35426602

conv2.0.weight f4 [40, 20, 5, 5]
000000 06 b1 09 bd e7 a3 0b 3d db 29 94 3c d6 1b 4a bc
       -0.03361609 0.034091856 0.018086364 -0.012335738
000010 a3 8f 3a 3c 7f c4 e4 bc 94 ff 11 bd 22 e2 a6 3d
       0.011386785 -0.027925728 -0.03564413 0.081486
000020 80 70 79 3d 17 ab 56 3d e1 54 2a 3b 36 e0 99 3d
       0.060898304 0.052409258 0.0025990533 0.07513468
000030 f3 f5 cd 3b cf fe 96 3d 6d 4a ed 3d b1 76 62 3c
       0.006285423 0.0737282 0.11586461 0.013822244
000040 30 0b 4d bd ff 76 dd 3c dd 15 98 3d 64 41 f7 3b
       -0.050059497 0.02703428 0.07426045 0.007545637
000050 71 49 0f 3b 01 9c 05 bd 34 f2 5b bd 68 9b 02 3d
       0.0021863843 -0.03261948 -0.05369778 0.03188649
000060 0f 23 94 3c d1 cd c2 bd 3b aa 89 bc 39 44 b0 3c
       0.018083123 -0.095119126 -0.016804805 0.021516906
000070 57 e7 b0 bd 0d 1b 5f 3c 1b 90 94 3b 58 19 55 bc
       -0.086378746 0.013617289 0.0045337803 -0.013006531
000080 e3 f5 08 3c 1e 8f d0 bc 22 d5 b5 bc 8d 4e 8a bd
       0.008359405 -0.025458869 -0.022196356 -0.067532636
000090 63 50 15 bd 04 d6 82 bd b1 0b 49 bd 48 0e 5f 3d
       -0.036453616 -0.063884765 -0.049083415 0.05445698
0000a0 0d f3 d2 bd fe 3b a0 3d 72 c1 36 3b ac 9b da 3d
       -0.103002645 0.078239426 0.0027886298 0.10674223
0000b0 21 0f 9d 3d 53 8b bf 3c fe aa 1a 3d b5 aa 2f bd
       0.07668901 0.023381865 0.037760727 -0.04288741
0000c0 43 89 84 3d fa 2b 8b bd 86 00 d8 bc 5f e7 f7 bc
       0.06471493 -0.06795497 -0.026367437 -0.030261694
0000d0 1c 74 45 bd b4 40 1e bd fc 6d 9b 3c 82 35 1d bd
       -0.048206434 -0.038635924 0.018973343 -0.038381107
0000e0 87 d8 16 bd fb 6d cc 3c 94 42 a3 3c 0d 1b 70 3b
       -0.03682759 0.024954787 0.019929208 0.0036637217
0000f0 b4 c7 03 bd 1e b7 87 bc 89 06 d8 bc 1b 18 c8 ba
       -0.032172874 -0.01656681 -0.026370304 -0.0015265973
000100 c3 ab 98 bc 63 74 43 ba cc 6d 32 3d 91 a7 13 bd
       -0.01863659 -0.00074560026 0.04356174 -0.036048476
000110 f5 da 8d bc 2b 96 80 bc 44 0f d5 bc 08 75 5e bb
       -0.01731632 -0.015696606 -0.026008256 -0.0033944268
000120 00 80 f5 bc c9 34 90 bc c3 cf f7 3c ff 40 6a bb
       -0.029968262 -0.017603295 0.030250436 -0.0035744307
000130 5e f0 6e 3d ba da 54 3c 1d 1e a8 bd 5f 83 01 3d
       0.0583347 0.012991602 -0.08208869 0.031619426
000140 8b c0 d1 bd e7 42 03 bd ac 34 3c bd c4 b7 a2 bd
       -0.10241803 -0.032046225 -0.04594867 -0.07945207
000150 4a dc 9b 3d 9d d2 57 bd 08 a2 68 3c f9 77 58 3d
       0.07610376 -0.05269109 0.0141987875 0.05284879
000160 cd 0c cf 3c cd 11 9a 3d a5 5e e0 bd d0 8f f3 bc
       0.025274659 0.075229265 -0.10955552 -0.029731661
000170 9e 52 54 bd 3d 49 61 3d cb 67 74 3d 67 c5 0f be
       -0.051836602 0.055001486 0.059669297 -0.14040147
000180 6d 6b dc bd a8 a4 5c bd 4d 4a 12 3d 4e 51 bf bd
       -0.10762677 -0.053867966 0.03571539 -0.093416795
000190 ab d1 0f 3d 41 36 c3 bc 9d f8 30 bc 9b b7 44 ba
       0.035112064 -0.023829581 -0.0108014615 -0.0007504166
0001a0 84 d1 85 bc ee 19 4d bc 48 04 29 bd 2b f3 02 3d
       -0.016335256 -0.012518389 -0.04126385 0.031970184
0001b0 8b 1b 6e 3c fa a8 e3 bb 71 15 c0 3c 66 7d 8c 3c
       0.014532934 -0.006947634 0.023447724 0.017149638
0001c0 81 c3 67 3a 27 98 37 3d 95 5c 31 3c d5 bc 60 bc
       0.0008841083 0.04482284 0.010825296 -0.013716896
0001d0 2c d5 14 bd 34 fa 0c bd bd 12 7b bc f1 c4 4d 3d
       -0.03633611 -0.0344183 -0.015324292 0.050236646
0001e0 7d 06 bd bc ce f8 97 bc 15 38 83 3c 7f d0 bf 3c
       -0.023074383 -0.018551257 0.016017953 0.023414848
0001f0 a6 ad f1 bc 76 e9 92 bc b0 ca 1b bd c1 3d ac bc
       -0.029501747 -0.017933588 -0.038035095 -0.02102554
000200 e4 5d 1a bc de cc 41 3c a8 c9 02 bd 89 c0 35 bc
       -0.009421799 0.011828629 -0.031930596 -0.011093267
000210 0a fe 2a 3d 17 da 2c bc 83 c8 91 3c f6 ed 03 3d
       0.041746177 -0.010550044 0.017795807 0.03220936
000220 26 1a d7 bc 53 1f 2e bc 85 02 10 bc 9b b5 0d 3c
       -0.026257586 -0.010627585 -0.008789663 0.008649255
000230 49 52 00 bd 5d 24 13 3d ab 85 28 3d ce 35 9d 3a
       -0.031328473 0.03592335 0.0411431 0.0011994184
000240 c1 13 f9 3c 8c 69 42 3c 6d 05 f8 bc e7 c3 bd 3c
       0.030404927 0.011865985 -0.030276025 0.023164703
000250 07 2f 44 3c 44 81 12 bd c7 55 0a be 6f 8b bf bd
       0.011974103 -0.03576781 -0.13509284 -0.09352767
000260 9e b3 76 bc 92 4c 7c 3d ce c9 e9 bd a7 3e ff bd
       -0.0150574725 0.06159646 -0.11415444 -0.12463122
000270 7f 5b e7 bd 8a 97 2e 3d f6 ba 4e 3d f2 83 a3 3d
       -0.11296748 0.042624988 0.05047127 0.07984151
000280 66 db 07 be a7 e6 bb bd 44 99 e3 3c 41 77 41 3d
       -0.13267288 -0.09174853 0.027783044 0.04723287
000290 5b 26 98 3e 49 04 0f be 21 cd 0b be 56 97 b3 3d
       0.29716763 -0.13966478 -0.13652469 0.087690994
0002a0 fb 4b 94 3d 6c 0b 8f 3e bb 54 42 3d 3e 2b c0 bd
       0.072410546 0.27938402 0.047444087 -0.09383248
0002b0 03 89 ce bd 48 6d 97 bd 17 30 1b 3e 42 e9 31 bb
       -0.10084727 -0.073938906 0.15155064 -0.002714709
0002c0 5b 94 05 bd e3 da 2d 3d a4 d7 b1 bb 1d 2e 88 3b
       -0.032612186 0.042445075 -0.0054273177 0.0041558878
0002d0 98 bd 3a 3c 30 68 59 3c f7 e1 36 bd 67 ec 91 3c
       0.011397742 0.013269469 -0.04464909 0.01781292
0002e0 ea fb c3 bc 79 bb 2c bd d5 57 32 3d 11 85 3c bc
       -0.023923833 -0.042170975 0.043540794 -0.011506335
0002f0 8e 35 06 bd af a6 77 bc b5 e7 ff 3b ab e5 be 3b
       -0.032765917 -0.015115424 0.007809604 0.0058257184
000300 8b 12 22 3c e7 99 4a 39 6f 2e 07 3d 8d 4e a1 3b
       0.009892116 0.00019321554 0.033003267 0.004922694
000310 0d 31 d6 3c e3 de 2a bd ec 39 98 bc 2b 86 6f bc
       0.026146436 -0.041716468 -0.018582307 -0.0146193905
000320 1c 54 40 bd a3 34 cf bd 85 ae 27 bc 42 e9 97 3d
       -0.046955213 -0.101174615 -0.01023448 0.07417537
000330 e1 b1 9a bc 28 c0 08 3c 9f b8 fc bd f3 3f c5 3c
       -0.018883647 0.008346595 -0.12339901 0.024078345
000340 63 d4 4c 3d a6 42 89 bd 07 b2 34 3d 0e 80 0a be
       0.050007235 -0.06702165 0.044115093 -0.13525411
000350 4d e0 15 bd 7f 0b 96 bc 55 ce 9e 3d 6f 3b ae bb
       -0.036590863 -0.018316029 0.077541985 -0.0053171436
000360 19 8c 80 3d f9 e5 97 3c 5b 77 3a bd 44 71 b0 bc
       0.062767215 0.018542277 -0.045523982 -0.021538384
000370 59 38 5a 3e 6d e3 8f 3d 54 88 00 3e 2c ba 94 bd
       0.21310557 0.070258 0.12552005 -0.07262072
000380 30 41 59 3c ce a1 a7 3c 81 46 bc 3c e2 6c 0b bc
       0.013260171 0.020462897 0.022982838 -0.008509846
000390 e5 c7 37 bd 94 10 40 bd a3 28 6d 3c 05 59 c8 3b
       -0.04486837 -0.04689081 0.014475021 0.0061141276
0003a0 3d a9 4c bc 1d 03 f7 bd 2c ba d4 bd 2b fa 2e bd
       -0.012491521 -0.12061141 -0.10387072 -0.042719048
0003b0 ca 48 0c 3b bc 17 bf bd 7e 25 3d be 9a 80 48 be
       0.002140569 -0.09330699 -0.18471333 -0.19580308
0003c0 f0 0a f2 3d 9a 33 2f be b8 4f 4a be 35 e6 17 be
       0.118184924 -0.17109528 -0.19756973 -0.14833911
0003d0 3c a1 c2 bd 4b 73 09 3d 22 ff f9 bb 50 c6 c1 bc
       -0.09503409 0.033557218 -0.007629291 -0.023654133
0003e0 2e 18 21 be fc 10 9c bb 40 8f 0b bd 2d 15 09 3e
       -0.1573188 -0.004762767 -0.03407216 0.13386984
0003f0 e9 7b c0 3c 64 ab c8 3c 56 ca 3a 3d cb 94 65 bd
       0.023496585 0.024495788 0.04560312 -0.056050103

conv2.0.bias f4 [40]
000000 cd 4b ac bd bf 1b 3a be a3 ba e7 bd 55 45 43 be
       -0.08412895 -0.18174647 -0.11314895 -0.19069417
000010 e2 57 8d be b4 75 58 bd e6 d8 85 be 01 f4 92 bc
       -0.27606112 -0.052846625 -0.26142043 -0.017938616
000020 90 98 d6 bd 65 37 77 be e3 eb a1 bd bc 2c 81 bc
       -0.10478318 -0.24142225 -0.0790632 -0.015768401
000030 39 15 0a be fb 7d d7 be 77 a6 85 be 82 af 0f be
       -0.13484658 -0.42088303 -0.26103565 -0.14031795
000040 08 cd 01 be 48 49 47 be c4 a6 30 be a6 76 9f be
       -0.1267587 -0.19461548 -0.17251116 -0.3114521
000050 af 21 75 be 04 bc 87 be e0 71 ae be ca db f9 bc
       -0.2393863 -0.26510632 -0.34071255 -0.030500311
000060 cb b0 fd bd 94 0d 3d be b5 e7 fc bd 84 29 14 be
       -0.12387236 -0.18462211 -0.12348882 -0.14468962
000070 85 88 d7 be 7b 1f a6 bd 09 c9 90 bd ff 25 03 be
       -0.42096344 -0.08111473 -0.070695944 -0.12807463
000080 5d 74 7a be d8 85 0d be 1e b6 d1 bc cc f7 bf bd
       -0.24458452 -0.13820589 -0.025599536 -0.093734354
000090 7b 8f 27 be 47 a6 37 be c1 02 a8 bd 5e 4d e1 bd
       -0.16363327 -0.17934524 -0.0820365 -0.11001085

linear1.weight f4 [100, 1960]
000000 c5 a3 3f bc d1 57 2c 3c 03 91 08 3b 30 12 c3 3a
       -0.011696761 0.010518984 0.0020838387 0.001488274
000010 44 e1 87 3c 7e 99 7f bc 53 db 74 3c 32 c6 b3 bc
       0.016586907 -0.01560056 0.014944869 -0.021945093
000020 41 91 58 bc fc 23 a8 bb 17 14 32 bc 95 2f 24 ba
       -0.013218225 -0.005131243 -0.010869048 -0.0006263194
000030 0b d9 5f bc c0 1d 62 bc e0 4c c5 bc 9b a2 28 3c
       -0.013662587 -0.013801038 -0.024084508 0.010292674
000040 d8 cd 3a bc 2f d8 3d bc 3c df 87 3a 7f 09 d1 3c
       -0.011401616 -0.011587187 0.0010366212 0.025517223
000050 66 2e 91 bb d7 5a bb bc ca d2 48 3b 01 d3 22 bb
       -0.00443058 -0.022870464 0.0030643218 -0.0024845006
000060 24 9f b0 bb 12 f9 4a 3c 19 bb 0b 3c 5f 6d 38 bc
       -0.005390065 0.012388485 0.008528494 -0.011256545
000070 49 f4 58 3b ab 71 0b bd 40 22 66 bc 94 8e 6f 3c
       0.003310459 -0.03404395 -0.014046252 0.014621396
000080 8e f7 13 3d 96 74 cf bb cd 70 9a bc 69 4e 20 3c
       0.03612476 -0.006331037 -0.018852616 0.009784319
000090 4f 7f 81 b9 68 26 e1 bb 1f a4 fd bb c5 f2 e4 3c
       -0.0002469965 -0.0068710335 -0.007740512 0.027947793
0000a0 af b1 80 bb 13 cf 63 bc 01 86 c2 3a 5e d3 78 3c
       -0.0039274315 -0.013904351 0.0014840962 0.015187113
0000b0 b5 f9 60 bb 23 dd 09 3c af c1 32 bc 2e 14 18 3c
       -0.0034328524 0.0084145395 -0.010910436 0.009282155
0000c0 82 06 bb 3b e9 75 09 bb 99 93 3c 3c 61 20 85 bb
       0.005707563 -0.002097482 0.011509799 -0.0040626978
0000d0 b4 e7 df 3c 80 e8 94 3b f3 50 b2 3b d3 00 04 bc
       0.027332164 0.0045443177 0.005441779 -0.008056837
0000e0 49 a9 3b bc 7f 92 a2 3c 9d a8 a2 bc 8d b6 d4 3c
       -0.011453935 0.019845245 -0.019855792 0.025965953
0000f0 06 cf 1e 3c b1 0b 8f 3b b5 a1 b6 bc 8f ea 16 bd
       0.009692913 0.0043654074 -0.022293905 -0.036844786
000100 5b 68 e3 bb a0 19 f0 bc 0a 84 e6 bc 92 01 a8 3c
       -0.0069399304 -0.029309094 -0.028139133 0.020508561
000110 90 a1 56 bc 0e 68 93 3b cc 72 bb bc 73 31 4f bd
       -0.013100043 0.0044984883 -0.022881888 -0.050584268
000120 29 43 16 bb 49 53 9a 3d f2 1d 44 3d 16 b6 00 3d
       -0.0022928214 0.07535417 0.04788012 0.03142365
000130 2d fb 21 bb 94 40 49 bd e0 6d 61 bd ed d3 9a bd
       -0.0024716363 -0.049133852 -0.055036426 -0.07559953
000140 f5 db 81 3c d0 c0 a9 3b 32 83 96 bb 44 24 ab bb
       0.015851954 0.0051804557 -0.0045932764 -0.005222829
000150 ea c2 a0 bb b0 31 13 3b 42 96 09 bd 1f 5e bb 3c
       -0.004906048 0.0022460036 -0.033590563 0.022872029
000160 93 ca 12 3d 34 08 bd 3b 51 1a 3f bc f7 87 81 bc
       0.03583772 0.0057688 -0.011663989 -0.015811903
000170 67 a5 39 3c b2 be 94 3c 67 96 12 bb 09 66 80 3c
       0.011330939 0.018157337 -0.0022367479 0.015673654
000180 3e e5 ac bc 62 6a 95 3b 9d 61 89 bb 63 b6 b6 bc
       -0.021105405 0.004559801 -0.0041925446 -0.022303766
000190 a3 21 ee 3a c9 64 02 3c 88 8c 69 3c a3 67 a3 bb
       0.0018167984 0.007958599 0.014254697 -0.0049867197
0001a0 67 3c 02 3c d7 89 84 3c 70 61 e5 bc f5 57 12 bd
       0.007948971 0.016179008 -0.028000563 -0.035728414
0001b0 b4 99 0f bb e3 d0 57 bb 9a 07 30 3d 02 a3 a9 bb
       -0.0021911683 -0.0032930903 0.042976 -0.0051769027
0001c0 50 61 cb bc dd 30 8d bc cc 90 8e bc 6c 6c 4b bc
       -0.024826676 -0.017235214 -0.017403029 -0.0124159865
0001d0 cb 90 f7 3c eb 03 12 3d d0 35 a7 3c f3 55 b1 bc
       0.03022041 0.035648268 0.020411402 -0.02164743
0001e0 34 88 1b bd 02 72 e7 3b ee bf 62 3d d2 63 cf 3b
       -0.03797169 0.0070631513 0.05535882 0.006329038
0001f0 77 5f e8 bc 60 c1 83 bb 52 46 78 3c d4 3d 0c bd
       -0.028365834 -0.004020855 0.015153484 -0.03423865
000200 c1 57 04 bc 1d ce fd 3b a4 df 72 bd 28 19 d4 3c
       -0.008077563 0.007745518 -0.05929531 0.025890902
000210 0d a5 e4 bb eb 13 90 bc 42 a6 89 bb 12 88 92 3c
       -0.0069776834 -0.017587623 -0.0042007277 0.017887149
000220 a3 9f 0a 3d 66 71 90 bc 9d bd fa 3c 85 5b cb bc
       0.033843648 -0.017632198 0.030607993 -0.024823913
000230 3d 32 bf ba 55 76 89 ba ad 96 3f 39 61 59 20 bb
       -0.0014587116 -0.0010487536 0.0001827131 -0.0024467336
000240 98 e1 dc 3c 55 50 18 3a dc ee 6a bc 18 4b 5b 3c
       0.02696304 0.000581031 -0.014339175 0.013384603
000250 8b 8f 84 3c 56 57 21 3c c6 ec ef bb 2f 9a f5 bb
       0.016181728 0.009847483 -0.0073219268 -0.0074951868
000260 a6 ee 81 bc ad ed e8 bb 1e 10 f6 3a 6b 52 08 3d
       -0.015860867 -0.0071084113 0.0018773114 0.033281725
000270 a7 03 fa 3c 28 e1 7b 3c a2 a3 2c ba 57 f8 66 3c
       0.03051932 0.015373506 -0.00065856625 0.014097295
000280 94 1c 3e ba 8b 29 64 ba 0c a8 22 bd 14 a1 a9 bd
       -0.0007252183 -0.00087037 -0.039711043 -0.08282676
000290 28 93 8a 3c 6f 7d 27 3c 94 82 14 3c 6e 90 6a bc
       0.016915873 0.010222777 0.009064335 -0.014316661
0002a0 8d 8d 24 bd aa d8 7d bd e4 66 10 bd 11 ac 02 3d
       -0.040174056 -0.061974205 -0.035254374 0.031902377
0002b0 6c 94 2b bc 5a e4 a7 bb c1 09 89 3b 78 da 93 3a
       -0.010472398 -0.005123657 0.004182071 0.0011280319
0002c0 0e 8c 08 bd 6e 5d 9f bc 35 1f 27 3d b6 d3 d6 3b
       -0.03333669 -0.01945373 0.040801246 0.0065559996
0002d0 18 ca 43 bc 86 82 2e bc 6d 33 01 bd d8 58 83 bc
       -0.011950038 -0.010651236 -0.031543184 -0.016033575
0002e0 cb c9 2a bd ed a8 c6 bc 7e 21 cc 3c 9c 85 e4 bb
       -0.04169635 -0.024250472 0.024918314 -0.0069739353
0002f0 83 db 25 3c 16 8f 49 bb 63 25 0c 3c d2 2e 5c 3c
       0.010123136 -0.0030755452 0.008553836 0.013438897
000300 f0 e2 65 3c 1c 8e c6 ba 27 a5 c3 3a 0e 13 23 3c
       0.014031157 -0.0015148553 0.0014926539 0.009953273
000310 fa 55 87 bc 02 33 02 3a 7b cf 7a bc b3 3c 55 3c
       -0.016520489 0.0004966707 -0.015308256 0.01301496
000320 84 35 af 3c a6 bf b9 bc 97 3c 87 ba a5 b1 f7 3c
       0.021387823 -0.022674393 -0.001031774 0.030236075
000330 33 17 15 3d 1b c0 05 3d 4b f5 0d 3d 7a ae 19 bd
       0.036399078 0.03265391 0.034657758 -0.03751991
000340 e7 a6 c8 3c df 35 ca bb fb af 65 3c 08 95 05 3d
       0.024493648 -0.0061709727 0.014019008 0.03261283
000350 77 d6 c4 3d 71 8c cf 3c bf 79 70 bc 9e 20 c0 3c
       0.096112184 0.025335522 -0.014677464 0.023453053
000360 a7 aa 75 38 bc a0 ab 3c 11 35 b1 3c ec e8 71 3d
       5.8571484e-05 0.020950668 0.02163175 0.059060022
000370 00 30 f5 3c 29 c6 70 bc 3c c1 0d bc 98 29 00 bd
       0.029930115 -0.014695683 -0.008652028 -0.031289667
000380 1f 2f b7 bc 17 ed c4 3b 12 25 94 3b 5f 4f 2e bc
       -0.022361336 0.0060097086 0.0045210207 -0.010639041
000390 d8 f9 f2 bc e7 86 07 bd aa dd 08 bc 00 54 49 bb
       -0.02966015 -0.033087637 -0.00835363 -0.0030720234
0003a0 ec f8 17 bd da b1 5c bd 43 87 3a bc f3 0f df bc
       -0.037102625 -0.05388055 -0.011384788 -0.027229285
0003b0 77 eb 14 bd 77 e9 2d 3c ad 3a 4a bb 52 63 c9 3c
       -0.03635737 0.010614744 -0.0030857727 0.024583492
0003c0 59 83 01 bc 06 d2 db 3a ed c4 fd bc a9 da bb 3c
       -0.007904851 0.0016770966 -0.03097769 0.022931414
0003d0 79 36 9a 3c 51 bc a2 bb 87 00 d9 3b bb 62 a5 3c
       0.018824803 -0.0049662967 0.0066223773 0.02018868
0003e0 93 a7 7a bc ba 45 61 3c a7 50 1c bc c5 d4 a3 bc
       -0.015298742 0.013749534 -0.009540713 -0.019998917
0003f0 bf e7 8f 3c 1d 17 cf 3c 84 45 a6 3c 6c 39 19 3d
       0.01756656 0.025279576 0.02029682 0.037408277

linear1.bias f4 [100]
000000 52 c6 f6 39 38 5e d8 3c 06 78 07 3b e0 92 85 ba
       0.00047068537 0.026412115 0.0020670905 -0.0010190867
000010 eb 0c 69 bb d0 3f 45 3b 51 a3 e9 bb 4b 8f 9f bc
       -0.0035560678 0.003009785 -0.0071300645 -0.019477507
000020 27 00 fd 3c 30 6a 31 3d a1 0e 62 3c 77 dd cd ba
       0.030883862 0.04331416 0.013797433 -0.001570626
000030 ab d9 a4 3c da 0c 18 bd 21 3b 32 3c c0 20 b1 bc
       0.020123323 -0.03712163 0.010878355 -0.021622062
000040 68 a2 fe 3c e8 93 b5 bc a7 58 d1 bb 59 9c 1a 3c
       0.0310833 -0.022165254 -0.006388742 0.00943669
000050 6c 0e 4a bc 78 9d 6d bc f3 08 fc 3b c1 4c 20 bc
       -0.01233254 -0.0145028755 0.0076914965 -0.009783925
000060 34 7c 40 3d 44 1d 51 bc 20 ac af bc ae f3 22 bd
       0.04699345 -0.012763325 -0.02144438 -0.039783172
000070 86 7b 05 bd e6 09 97 3c 2f c3 81 bc 53 79 03 3b
       -0.032588504 0.018437337 -0.015840141 0.0020061329
000080 9d 35 01 3d 7e 8e e8 3a 98 05 8c bd 37 93 a7 3c
       0.03154527 0.0017742661 -0.068370044 0.02045594
000090 ed ad d9 3c 4a ff 8f bc 21 93 8b bd c8 f1 30 3c
       0.026572192 -0.017577786 -0.06815172 0.010799833
0000a0 9f 5c 9a 3b 02 c9 04 bd a0 2f 06 3d a3 28 3f bd
       0.0047107483 -0.03241826 0.032760262 -0.046669614
0000b0 48 02 78 3d bf 37 74 bd 32 83 39 bd 8d 2a dc bc
       0.06054905 -0.059623476 -0.045291133 -0.026875759
0000c0 ce 64 6a bc 3a 11 7d 3d 07 cb b6 3c 89 76 f6 bc
       -0.01430626 0.061784007 0.022313608 -0.030085819
0000d0 47 4a fa 3c 4d 75 8f bc 61 0a a4 3c 2e a1 c3 3c
       0.030552996 -0.017511988 0.02002448 0.023880567
0000e0 07 1d c1 3b a9 64 1f 3d 92 63 07 3b 88 1b 68 3c
       0.005893353 0.038914356 0.0020658714 0.01416672
0000f0 13 98 4c bd 3c f3 d7 bc cb 84 9e 3c 3b 4c b8 3c
       -0.049949717 -0.0263611 0.01935043 0.022497287
000100 22 7f 8d 3d 0c c5 aa 3c 08 68 b4 bc 47 d0 2d 3d
       0.06909014 0.020845912 -0.022022262 0.042434957
000110 f4 c0 bd bc 6b 8f be bb 6d 6e ba bc df 12 d8 bc
       -0.023163296 -0.0058154366 -0.022757733 -0.026376186
000120 e9 04 02 bd 08 82 9f bb f3 0f 9e bc 2f bf b6 bc
       -0.031742964 -0.004867796 -0.019294715 -0.02230796
000130 77 f2 ba bc d8 76 62 bd f3 c8 81 3c 6b ca 16 bd
       -0.022820694 -0.05528912 0.01584289 -0.036814135
000140 64 c2 3f 3d 3d 70 5a bc 4e c1 84 bc db 5f 21 3d
       0.046816245 -0.013332424 -0.016205456 0.039398056
000150 11 1b 41 3d 9b e7 81 3c c0 8d 0a bd fd 4e 84 3d
       0.047144953 0.015857508 -0.03382659 0.06460378
000160 4d 1e 1e 3d 7b 18 bc bc 31 be 2a 3d e5 1f 48 3c
       0.038603116 -0.022960892 0.041685287 0.0122146355
000170 4f 15 8f 3d 97 ef 87 3c c1 2b 3a bd d2 b3 8e 3c
       0.06986486 0.016593738 -0.045451883 0.01741973
000180 c5 0d c7 3b d3 a9 c8 bc 17 0d 19 bd 10 1f fe bc
       0.0060746395 -0.024495041 -0.037366 -0.031020671

linear2.weight f4 [100, 100]
000000 3d 0a f4 3d 39 39 2a 3d 76 50 6d 3d 3c 4c f8 bd
       0.11916015 0.041558478 0.05793806 -0.121239156
000010 ef b1 1e 3b f2 06 ef 3c 8f ad 65 bc ec 56 0b bd
       0.0024214943 0.029178116 -0.01401843 -0.034018442
000020 fe c6 69 bd 6c bc bb 3c 16 14 8c bd d4 7f b5 bd
       -0.05707454 0.022916995 -0.068397686 -0.08862272
000030 2f 5f a1 bc a3 e0 13 be 19 73 37 3c ea f2 72 bd
       -0.019698707 -0.14441161 0.011196875 -0.059313692
000040 23 4d 3e bd 74 74 0b be b1 90 76 3d 2b ee 27 3d
       -0.046460282 -0.13618642 0.060196582 0.04099862
000050 27 77 93 bd ff 82 6c 3d 5e 2a e5 3c d2 0c ab bc
       -0.07200461 0.057742115 0.027974304 -0.020880137
000060 e6 a4 48 bd e4 54 ac bd fe b4 4b bd fb de 30 3d
       -0.048985384 -0.08414629 -0.049733154 0.0431814
000070 ed e9 3c bd f5 09 39 3e 03 9a 46 be 2c 81 f1 bd
       -0.046121527 0.18070205 -0.19394688 -0.11792216
000080 2c 58 b9 bd 6c 94 e7 bd 59 fd d7 3d d7 7c ea bc
       -0.090500206 -0.11307606 0.10546369 -0.028623981
000090 32 19 68 bc 9e ae 6c 3c 25 ea 9f 3d 58 53 8c 3d
       -0.014166163 0.014445929 0.078083314 0.06851834
0000a0 51 3d 5b 3d 2c c5 4e 3d e1 b8 74 3d 9b 7f fd 3d
       0.053525273 0.050481007 0.059746627 0.123778544
0000b0 78 aa a1 3d 7e 94 8c bb 03 fb 16 be b5 eb 5d bb
       0.078938425 -0.0042901626 -0.14744191 -0.0033862416
0000c0 72 b6 52 3d d9 d9 7f bd a6 40 80 bd 53 9b 97 3d
       0.051443525 -0.062463615 -0.06262331 0.074026726
0000d0 03 e0 24 3e 63 4f 10 bd 61 70 1e 3c 39 73 8f bd
       0.16101079 -0.03523196 0.009670348 -0.07004399
0000e0 46 99 57 3d 24 3f fc bd 1d 57 cb bd 66 a0 d2 bd
       0.052636407 -0.123167306 -0.09928725 -0.102845
0000f0 96 72 92 3d 32 da 59 bd b0 30 7a 3d 71 56 99 bd
       0.07150762 -0.053186603 0.06108159 -0.074871905
000100 3a 3b d9 bd f0 b1 47 bc d7 f1 e6 bc 7a 1b f9 bd
       -0.10607 -0.01218842 -0.02819149 -0.12163444
000110 30 46 17 be 06 9c a2 3d 84 cc 1b 3d 3c 1a 78 bd
       -0.14772868 0.07939915 0.03803684 -0.060571894
000120 0f bc 9a bd 9b ff 01 3e 1b c2 9c bd bd ee 00 be
       -0.075554006 0.12695162 -0.0765421 -0.12591071
000130 04 6f 7d bd b6 25 8b 3d fc 7c 4f 3d 3f fb 06 be
       -0.06187345 0.06794302 0.050656304 -0.1318178
000140 2b 15 22 3b 53 6f 9a bc fe 37 04 3e 2a 57 df 3d
       0.0024731855 -0.018851912 0.12911984 0.10905297
000150 e8 84 8c 3d 4b 83 36 3d 6f 32 c0 bd 4a a0 22 be
       0.06861287 0.044558804 -0.093846194 -0.15881458
000160 d6 c4 d0 3d 84 1d 60 3d 79 6e 37 bb 41 c0 01 3e
       0.101937935 0.05471565 -0.002798943 0.12670995
000170 9e e0 08 be 07 7c b5 bd 1c d6 a8 3d c9 0c c9 bd
       -0.13366935 -0.08861547 0.08243963 -0.09816892
000180 9c c9 dd 3c cd 86 c6 bc 59 e2 d0 3c c3 9b e2 bd
       0.027073674 -0.0242342 0.025498556 -0.110648654
000190 63 80 8c bd 24 3f c2 bd 67 f6 5a 3d cc 42 88 bc
       -0.06860425 -0.09484699 0.053457644 -0.016633414
0001a0 6c 48 03 bd 30 6a 2f bd 63 27 0f be 5e 89 a2 bd
       -0.03205149 -0.042825878 -0.13979869 -0.07936357
0001b0 f2 e3 42 b9 50 c1 d1 3d ac d3 98 bd b3 ee 11 be
       -0.00018586198 0.102419496 -0.07462248 -0.14251213
0001c0 40 74 07 be 26 4a 94 3d 1d 2e c3 bd 51 ad 49 bc
       -0.1322794 0.07240705 -0.0953028 -0.012309388
0001d0 95 58 83 3c 24 d1 33 bd 53 20 3e 3d b6 e2 b0 bd
       0.01603345 -0.043900624 0.046417546 -0.08636992
0001e0 5d b1 7b bd 52 dd 24 bd a1 64 15 bd ee ca 1f bd
       -0.061448444 -0.04025013 -0.03647292 -0.03901189
0001f0 0d af 13 bd eb f7 de bc 4a f0 4e bd 6a 90 a6 bd
       -0.036055613 -0.027217826 -0.050522126 -0.081330135
000200 01 0d 68 bc d7 aa 0c be 5a 4a 5e 3d b9 e5 02 bc
       -0.014163257 -0.13737045 0.054270126 -0.00798934
000210 a5 48 73 bd 3c 8b eb 3d a6 a2 0b be a0 29 06 be
       -0.05939545 0.11501166 -0.13636264 -0.13101816
000220 61 3f d7 bd 2a 76 ba 3c 8f ef a9 3d e6 b3 13 3c
       -0.105101354 0.022761423 0.08297645 0.009015059
000230 96 8b 02 3e 4c 96 c9 3d 0f 29 30 3e fa 10 e7 3d
       0.1274856 0.0984312 0.17203163 0.11282535
000240 e6 89 1d bd 98 57 8b bc 4b a2 ba bd b0 5c df bc
       -0.03846159 -0.017009541 -0.09112986 -0.027265877
000250 f0 09 b3 3c 6f 8a 8e 3d b1 fa 24 3e 67 74 08 be
       0.021855325 0.06959998 0.16111256 -0.13325654
000260 5e c8 b5 bd b6 d5 a6 bc 69 69 ee bb 6d b3 5a 3c
       -0.08876108 -0.020365577 -0.0072757495 0.0133484425
000270 73 48 5c 3d 4a 65 15 3d 31 e1 8f bd 39 08 05 3a
       0.05378003 0.03647355 -0.07025374 0.00050747726
000280 b6 bb 6e bd 0f 45 ed 3d 40 b6 81 bd 2b b0 85 bd
       -0.058284484 0.115854375 -0.063335896 -0.06527742
000290 f9 83 c8 bd 9a ab 8f bd ee 96 e5 bd 7c 49 ed 3d
       -0.09790797 -0.07015152 -0.11210428 0.11586282
0002a0 30 2f 81 bd a6 ae 08 3e 62 bf c7 bd f6 81 a0 3d
       -0.063078284 0.13347873 -0.097533 0.07837288
0002b0 1e 8b 06 3d 2c 87 3f 3d 44 ac eb bd 29 9e b0 3d
       0.032847516 0.04675977 -0.115074664 0.08623917
0002c0 4d 05 fc 3d 9d e1 a6 3b 46 76 6b 3d 5d 35 10 be
       0.123056985 0.005092813 0.05748584 -0.14082856
0002d0 d4 c7 22 bd ad 3d 07 3d 38 4c b1 bd bc 7b 0e 3e
       -0.039741352 0.033017803 -0.08657116 0.13914388
0002e0 6d 61 37 3e c5 71 95 bd 75 1a 07 3c 5f a1 21 3e
       0.17908259 -0.072970904 0.008246054 0.15784214
0002f0 d5 fb 3d 3d 24 ff a8 3c 0a 83 68 bd 82 5f 1d be
       0.046382744 0.020629473 -0.056765594 -0.15368465
000300 6f 4b 9b 3d d7 71 2e bd 19 33 78 bd a7 75 a2 3c
       0.07582747 -0.042589035 -0.060595606 0.019831492
000310 36 ea f5 bd 81 94 af bd 9f 2d 76 bd e0 4b 03 3e
       -0.12007563 -0.08573247 -0.0601021 0.12821913
000320 b7 83 11 3c 09 72 0c 3c 86 50 78 3d 3d 66 ad bd
       0.008881501 0.00857211 0.060623668 -0.08466766
000330 5e d8 6d 3c 72 d6 2e 3d 33 71 a1 3c 30 6f f5 bc
       0.014516918 0.04268498 0.019707298 -0.029960245
000340 b5 4e 41 bc a5 4d 06 3e d2 e4 11 3c 6d 95 a8 3d
       -0.01179855 0.13115557 0.008904653 0.08231626
000350 b2 cd 39 bc 67 01 2b 3d 13 23 91 bb d8 e4 3a 3d
       -0.0113405455 0.041749384 -0.00442923 0.0456284
000360 e4 42 51 bd d9 cc eb bd 74 5a a0 bd 01 0c 16 3d
       -0.051089182 -0.11513681 -0.078297526 0.03663254
000370 a4 81 5b bd 10 c0 c4 bd ae 55 e1 bc f5 8e 4b bd
       -0.05359043 -0.096069455 -0.027506676 -0.04969688
000380 78 c7 02 3e d3 4f 80 3d c7 c1 5d bc 5c d6 3a 3d
       0.12771404 0.06265225 -0.01353497 0.045614585
000390 00 77 13 3d c2 61 60 3d 7e 6f cf 3d f5 92 a3 bd
       0.03600216 0.05478073 0.10128687 -0.07987014
0003a0 c5 33 a6 3d 9a 1c ec bc 4c 46 14 be 61 01 7d 3b
       0.08115343 -0.028822232 -0.14479941 0.0038605558
0003b0 23 20 8a 3d e9 c0 89 bc d5 e9 d1 bd 39 36 6c bd
       0.06744411 -0.01681562 -0.10249678 -0.0576689
0003c0 95 40 49 3d 42 1d 73 3c 7f 91 20 3d 69 be af bd
       0.049133856 0.014838519 0.039201256 -0.0858124
0003d0 c0 17 c7 3d c4 f0 e3 bd e4 99 c9 bc b6 6c ae bd
       0.09721327 -0.11129907 -0.024609514 -0.08516829
0003e0 b6 46 80 3c 7c 55 75 3c fd 1d f7 3d 40 b2 cf bd
       0.015658718 0.014973994 0.12066267 -0.1014142
0003f0 3b c9 da 3d 61 73 c6 bd 6b 3f 4d bc 1c 47 5c 3d
       0.10682913 -0.096899755 -0.012527327 0.053778753

linear2.bias f4 [100]
000000 00 39 5d bd d4 d6 c6 3d af 27 1c 3d 34 80 dd 3c
       -0.054009438 0.09708944 0.038123783 0.027038671
000010 4e 56 a2 bd 56 e3 31 bc 39 13 00 3d d4 6e 59 bc
       -0.079266176 -0.010857424 0.031268332 -0.013271052
000020 16 2d a4 bd 72 d5 8a 3d e8 4a 6d 3d 15 60 c2 bc
       -0.08016412 0.06778993 0.057932764 -0.023727456
000030 a8 ac 07 3d 1e 52 6d bd 99 d9 22 bd 2e 4d 1b bc
       0.033123642 -0.05793964 -0.0397583 -0.00947885
000040 48 b4 a7 3c 71 a7 3c 3d 50 2c 24 bd cd 7e 7f bd
       0.020471707 0.046058122 -0.040081322 -0.062376786
000050 bf b7 3e bd c7 cb 65 bd 71 c9 3d 39 e4 5c c9 3b
       -0.046561953 -0.05610254 0.00018099487 0.0061451066
000060 b3 d4 91 bd 10 46 59 3d e9 0e 35 bd 1e 6b 1b bc
       -0.07120647 0.053045332 -0.044203673 -0.009485988
000070 cd a2 d0 bc cc ea 8d bb b3 f5 c9 3d 76 fe c3 bd
       -0.025468254 -0.0043309685 0.098613165 -0.09570019
000080 9e a0 19 bd 8f b5 07 3d b5 ef 19 bc 8c 1b 1a bd
       -0.037506692 0.033132132 -0.0093955295 -0.037623927
000090 6d 87 0b 3d dd bb 40 bd dc 2d 3c bb fa 12 d4 3d
       0.0340647 -0.04705416 -0.0028713858 0.10355182
0000a0 79 b3 32 bd 2b ac b9 bd 20 41 68 bd c5 2b 4d ba
       -0.04362819 -0.090660416 -0.056702733 -0.00078266516
0000b0 46 39 c9 3d d6 83 b7 3d 50 fa 1b bc 7a 33 78 3c
       0.09825377 0.089606926 -0.009520128 0.015148992
0000c0 d7 f8 e4 bd b6 8a d0 3d a5 cc d5 3d 2f 38 9f bc
       -0.11180275 0.10182707 0.104394235 -0.01943597
0000d0 dd ba 63 3d 76 c1 fc bb 23 af 1d bd 4e 24 0c 3b
       0.05559813 -0.007713492 -0.0384971 0.0021383944
0000e0 0b 9e e7 bd 32 4b 2b bd 62 d2 a1 bd 27 32 1a bc
       -0.11309441 -0.04181976 -0.079014555 -0.009411371
0000f0 de cc 58 bc e1 09 d4 bd d6 d8 05 3d 3a ed bc ba
       -0.013232438 -0.10353447 0.032677494 -0.0014413961
000100 b4 0a 99 bd 39 e9 b1 3c 13 6f 31 3d 51 0c f6 3c
       -0.074727446 0.021717655 0.04331882 0.03003517
000110 bd 31 49 3d ae bd c6 bb 2c 0b 0d 3d 37 d1 ec 3d
       0.0491197 -0.006065092 0.034434482 0.11563342
000120 c4 67 7e 3d 1f a2 a6 3d 44 3c be 3d f0 31 7b bd
       0.062110677 0.08136391 0.092888385 -0.06132692
000130 7f 52 4c bd 8a e7 a2 3c 99 51 88 3d de 85 42 bd
       -0.049883362 0.019885797 0.066561885 -0.047490947
000140 b5 f1 71 3c 89 1c e3 3d 35 be c8 3c a7 7f 17 3e
       0.0147671 0.11089427 0.02450476 0.14794789
000150 3d 37 a1 bd 13 38 ba bc fa ee 26 bd 63 22 0d 3b
       -0.07871864 -0.022731816 -0.04075525 0.0021535389
000160 2c 03 0c be 4a 4f 99 bc f8 5d 8d 3c 9d 42 7d 3d
       -0.13673085 -0.018714566 0.017256722 0.061831106
000170 59 f3 20 bc ba eb 85 bd b2 28 22 bd 0f d8 ad bc
       -0.009823644 -0.06539102 -0.03958959 -0.021221189
000180 8c a1 3e bd 17 f6 66 3d 79 f6 33 3d cd 9b 24 bd
       -0.04654078 0.056387033 0.043936227 -0.040187646

linear3.weight f4 [10, 100]
000000 18 3a 19 be cd 1a 96 3d 75 4a 10 bc a7 eb 87 3d
       -0.14963567 0.073293306 -0.008806814 0.06636744
000010 7c 1f 38 b9 c4 b9 1c be 4c 1d e3 bd 79 dc 07 3e
       -0.00017559336 -0.15305239 -0.11089572 0.13267697
000020 22 54 29 3d e8 b7 87 3e 0b f5 e1 bc 5a dd f7 3d
       0.04134 0.26507497 -0.027582666 0.12102766
000030 92 58 18 3d 07 90 06 bc df bb 9a be 9e f8 28 be
       0.037193842 -0.00821305 -0.3022146 -0.1650109
000040 0d a1 53 3d 1c 29 27 be 74 d9 bc 3d 8c 3a 87 3e
       0.051667262 -0.16324276 0.092211634 0.26411855
000050 43 a9 0b 3d 92 ac c0 be 2f 34 28 3e e8 a1 38 be
       0.034096967 -0.3763166 0.16426156 -0.18030512
000060 89 12 9b 3e ad 9e 9e bd 66 b8 2f 3e 48 a7 73 bd
       0.3028758 -0.07745109 0.17160186 -0.059485704
000070 13 c3 c7 3e 48 b6 df bd ab 8b a8 bd b7 d6 27 3e
       0.39016017 -0.10923439 -0.082297646 0.16390501
000080 8b 01 91 3d 69 53 b0 3d 87 da 45 be 72 c4 1c 3e
       0.070803724 0.08609659 -0.19321643 0.15309313
000090 6c a2 c9 bd 6e ff 8d 3e 79 55 b8 3c 13 20 db 3c
       -0.09845433 0.2773394 0.022501694 0.026748693
0000a0 98 a1 cd 3e 63 f9 df 3c a2 09 45 be 32 fc bd bd
       0.4016235 0.027340597 -0.19241956 -0.09276618
0000b0 3a 2c 14 be b4 ea 18 3e 4c cd 1f bd da 2b ec 3d
       -0.14469996 0.14933282 -0.039014146 0.115318015
0000c0 4e b4 60 3e d4 4c e6 bd 1f 4c c6 be 80 2a d5 bd
       0.21943781 -0.112451226 -0.3872995 -0.10408497
0000d0 e8 3b e5 3d a7 1e 9d 3e 78 10 0a 3e ba 6d 9d 3d
       0.11193067 0.30687448 0.13482845 0.07686944
0000e0 82 69 df 3d e7 3e a4 3b 35 8a 46 be 59 9e 25 bd
       0.10908796 0.0050123814 -0.1938866 -0.040434215
0000f0 21 7d b9 3e 93 da 1c 3e 1e 49 18 bd e5 84 34 3d
       0.36228278 0.15317754 -0.037179105 0.04407205
000100 18 d0 23 be 6f ac 57 bd 9e 58 81 be fb d7 e6 3d
       -0.1599735 -0.05265468 -0.25262922 0.11271664
000110 a5 01 c4 3b 24 27 2d 3c ed 40 d0 bd 95 ff 8b bd
       0.0059816414 0.010568414 -0.101686336 -0.06835858
000120 c1 dd 73 3e b2 6a 35 be ab 09 42 3a 93 11 34 be
       0.23815061 -0.17716482 0.00074019533 -0.17584829
000130 12 16 05 bc 9f 47 07 3e 52 85 8c 3d 1d f1 82 3d
       -0.008122938 0.13210915 0.06861366 0.06393645
000140 c3 04 fa 3d 60 e2 4b be 19 b5 8a 3e 64 5a 08 be
       0.122079395 -0.19910574 0.27091292 -0.13315731
000150 16 ee 6c be 7f 9e 7d 3d 88 eb 0f 3e 20 08 76 3d
       -0.23137698 0.06191873 0.14054692 0.060066342
000160 23 0d 37 be 79 70 4e be d0 fd 1b bc 05 81 0e bf
       -0.17876105 -0.20160092 -0.009520963 -0.5566562
000170 f7 a2 0f 3d 3b 35 ac bd 84 7c 26 be 3b 7f 9d 3e
       0.035067525 -0.084085904 -0.16258436 0.30761132
000180 12 91 80 3e 70 7c 83 3d fd 19 ea be 29 46 cd 3e
       0.2511068 0.06420219 -0.45722952 0.4009259
000190 10 96 06 3e a9 9b c7 3e be af af 3e 6d 04 10 bd
       0.13143182 0.38985947 0.34313768 -0.03516047
0001a0 8e 39 06 3d 16 ef 35 3e 24 23 c6 3d c7 35 2f be
       0.032769732 0.17766985 0.09674671 -0.17110358
0001b0 aa 9d 90 3e d9 93 10 bc 41 b0 0b 3e e0 48 86 be
       0.28245288 -0.008824312 0.13641454 -0.26227474
0001c0 5b b3 39 3e 02 a0 a3 3b 1b 80 97 bc e3 f2 03 3e
       0.18134825 0.0049934397 -0.018493703 0.12885623
0001d0 8e 2e bd bd 76 c7 f8 bd ad 68 3c bd 72 56 1f bc
       -0.09237395 -0.12147419 -0.045998264 -0.0097252
0001e0 a2 f0 43 3c bb 44 2f 3e e7 49 e6 bc ff ed ae 3e
       0.011959227 0.17116062 -0.028111411 0.34165952
0001f0 08 48 9a be f7 f1 6a be 1c 48 03 be 7b 56 db bd
       -0.3013308 -0.22943865 -0.12820476 -0.10709854
000200 71 dc 8f be 63 7b 6a bd a5 06 22 3e f5 b2 0c 3e
       -0.2809787 -0.057246577 0.15822847 0.13740142
000210 b6 0b bf 3d 11 eb a1 bd 83 27 28 bd 5f e5 6d 3c
       0.093284056 -0.079061635 -0.041053306 0.014520018
000220 d1 b7 16 3d d6 f9 a6 3c 6a 5e 12 bd 38 cb d3 3a
       0.036796395 0.020382803 -0.03573457 0.0016158586
000230 4a a3 9a 3e 52 13 6f be 77 b8 77 be b3 4d 01 3d
       0.30202705 -0.23347214 -0.24191462 0.03156824
000240 52 fc c4 bc 03 90 78 be 9f 48 87 3e ff 9f f6 bd
       -0.024046097 -0.24273686 0.26422593 -0.120422356
000250 bc 0b 0c 3e 19 7a 71 3e a8 d6 86 3e 81 ee b7 3d
       0.13676351 0.23581733 0.26335645 0.08981038
000260 4c 48 8e 3d dc 85 5d bd 20 b6 94 3e 51 eb 88 3d
       0.06947383 -0.054082736 0.290452 0.06685508
000270 71 49 45 bd e6 b3 67 bd f6 38 3e 3e 87 c7 53 3d
       -0.048165742 -0.05656805 0.18576416 0.051703956
000280 6f 6e 2b 3e 45 a6 82 bd c9 58 b6 bd a5 b2 b4 bd
       0.16741346 -0.0637937 -0.08903653 -0.08823136
000290 33 1a 3e bd 69 05 3e 3c 39 07 07 3e 2a 58 9d be
       -0.046411704 0.01159797 0.13186349 -0.30731326
0002a0 48 8f a1 3b 6e d5 be 3d 31 a1 2c be e6 5f 2b 3d
       0.0049304105 0.09318052 -0.16858365 0.041839503
0002b0 b2 5b e1 3c 0c e6 ab bd 72 03 2f 3c 49 00 76 3d
       0.027509544 -0.08393487 0.010681974 0.060058866
0002c0 18 38 1c be 44 fb 67 3e d3 c0 57 3d c9 54 2f 3c
       -0.15255773 0.22654444 0.052674126 0.010701367
0002d0 9f c6 c8 3d 2f 9c 9f 3e c7 28 62 3d 42 44 89 3e
       0.09803509 0.31173846 0.05521467 0.2680989
0002e0 c2 cb d3 bc 18 52 d6 3d 2e ee 82 3e 6c d9 49 3e
       -0.025853995 0.10464877 0.25572342 0.19711846
0002f0 94 4e 51 bb 05 a5 92 3e 95 29 bb 3e 00 17 d7 3d
       -0.0031937705 0.28641525 0.36555162 0.10502434
000300 6c 43 c1 3e 83 06 29 3e 22 51 32 be 91 a5 58 3e
       0.3774675 0.1650639 -0.17413762 0.21156909
000310 ce 7b 9e be 10 1f 9e be c9 1f 86 3e 91 13 5b 3e
       -0.3095383 -0.30883074 0.26196125 0.21394183
000320 b5 14 35 3d c5 74 fe 3d 30 45 e1 bc 4b e0 ef 3d
       0.0442092 0.12424616 -0.027498811 0.11712702
000330 86 fd 12 3c 66 41 65 3d 7f ca c8 3e 2d 0b 04 be
       0.0089715775 0.055970572 0.39216992 -0.12894888
000340 35 58 47 3e 5f 93 85 be c6 ea fa 3d 53 a7 da bd
       0.19467242 -0.26088998 0.12251811 -0.10676446
000350 65 0b a3 bd 11 37 30 be 4e 34 e3 3d 4a c0 78 3e
       -0.07961158 -0.17208506 0.11093961 0.24292102
000360 8b c4 c7 bd c8 38 1a 3e 11 e8 1a be 7f d5 2f 3d
       -0.097542845 0.15060723 -0.15127589 0.042928215
000370 d9 7f 32 3e bb e6 96 bc e8 32 2d be cb 24 08 3e
       0.17431583 -0.018420568 -0.1691395 0.13295285
000380 be 60 16 3e cc bf a4 bd 5c 21 65 3e 01 f5 b0 3d
       0.14685342 -0.08044395 0.22376007 0.08640481
000390 1b f0 85 3d 13 16 d3 3c 67 2c 65 3e 2c 4b 8c bd
       0.06539937 0.025767362 0.2238022 -0.068502754
0003a0 35 a0 b3 bd b5 54 58 3d f2 29 45 3e 4c b3 61 be
       -0.087707914 0.052815158 0.19254282 -0.22041053
0003b0 b1 59 03 3e 1a 58 7b be 6a 30 27 3e ac 17 fa 3d
       0.12827183 -0.24545327 0.16327062 0.12211546
0003c0 2a 53 a7 3d 81 14 ed bd 32 91 b2 be b7 26 b1 3d
       0.08170159 -0.115761764 -0.348764 0.086499624
0003d0 a3 55 5f 3e c3 62 7b be a0 8d 95 be f3 af eb 3d
       0.21810012 -0.24549393 -0.29209614 0.11508169
0003e0 b5 b1 5c 3e f7 b0 40 bc 40 1f 65 be b5 5e 06 3e
       0.21552165 -0.011760942 -0.22375202 0.13122065
0003f0 1d eb 51 3e b4 73 87 3e 70 29 5e be 42 d1 b3 bd
       0.20499845 0.26455462 -0.21695495 -0.08780147

linear3.bias f4 [10]
000000 75 3d 34 be 6d 5f 65 3d 48 f3 a9 bd 90 24 85 bd
       -0.17601569 0.05599921 -0.08298355 -0.06501114
000010 56 f5 03 be 01 a9 d1 bc 79 b5 64 be d0 aa b8 3d
       -0.12886557 -0.025593283 -0.22334851 0.09016955
000020 e2 2e 3f 3e fd 12 f1 3d
       0.18670228 0.117712
